app/Matrix_Capsules_EM/snapshots/model_10.pth (torch_old, 278178 bytes, 19 tensors)

conv1.weight f4 [64, 1, 5, 5]
0	0x3ddecbcc	0.10878715
1	0xbd5aa184	-0.05337669
2	0xbde97eec	-0.114011616
3	0x3e09ed54	0.1346944
4	0xbe4a65f7	-0.19765459
5	0x3e15b0d8	0.14618242
6	0xbba452ff	-0.0050147767
7	0x3db55b0f	0.08855259
8	0x3d8434f6	0.06455414
9	0xbe3268a0	-0.17422724
10	0x3e296482	0.16542247
11	0x3dcd2622	0.10017039
12	0x3de9d319	0.11417217
13	0x3dd81a51	0.105518945
14	0xbe2200e7	-0.15820657
15	0xbdf6d596	-0.12052457
16	0x3e5258ce	0.20541689
17	0x3db2511c	0.08706877
18	0x3e605407	0.21907054
19	0xbdde9c4a	-0.108696535
20	0xbf1edde7	-0.62057346
21	0xbf055892	-0.5208827
22	0xbeac1fe6	-0.33618087
23	0xbefa0bb5	-0.48837057
24	0xbf0f2fd6	-0.55932367
25	0x3daf1e3b	0.08550688
26	0x3f01203e	0.5043982
27	0x3e75920e	0.23981497
28	0xbe9a8bfd	-0.30184928
29	0xbe22796d	-0.15866633
30	0x3e234e29	0.15947784
31	0x3e2cb84f	0.16867183
32	0xbd2f8e9c	-0.042860612
33	0xbee3ba08	-0.44477868
34	0xbf040c13	-0.51580924
35	0x3da64823	0.08119228
36	0x3e13a358	0.1441778
37	0xbd8909c2	-0.06691314
38	0x3d5cdf0f	0.053923663
39	0xbe8a35b4	-0.26994097
40	0x3e84c0a5	0.25928226
41	0xbdc80257	-0.09766071
42	0x3dff5c60	0.12468791
43	0xbd49a601	-0.04923058
44	0xbe86100d	-0.2618412
45	0x3e14a31e	0.1451535
46	0xbe6832eb	-0.22675674
47	0xbdfe3a12	-0.1241342
48	0xbe095a52	-0.1341336
49	0x3cdee219	0.027207421
50	0xbdce662f	-0.10078084
51	0xbe80a08e	-0.25122494
52	0xbdd888cb	-0.10572966
53	0x3bc13a75	0.005896861
54	0x3ed935b4	0.42423785
55	0xbd8c2a12	-0.06843962
56	0xbe90d19a	-0.28284913
57	0xbdbe0c54	-0.09279695
58	0x3e89a78e	0.26885647
59	0xbbbf1602	-0.005831481
60	0xbe9989cc	-0.29987943
61	0x3c94cff7	0.018165572
62	0x3ed03374	0.40664256
63	0x3eec3612	0.46135002
64	0xbec6779e	-0.38763136
65	0xbd4af5d6	-0.049550854
66	0x3e1c68d6	0.15274367
67	0x3e38a137	0.18030249
68	0xbcd90f0b	-0.02649643
69	0xbf04730d	-0.51738054
70	0x3e17aee9	0.14812817
71	0xbd7a8aa9	-0.061167393
72	0x3cb9c277	0.022675736
73	0xbdb48676	-0.08814709
74	0xbd939c78	-0.072075784
75	0x3e66d7e0	0.22543287
76	0x3e99ca24	0.30037034
77	0x3e874afa	0.2642439
78	0x3d9f63cd	0.07782707
79	0x3ea3697d	0.3191642
80	0xbe45bbe4	-0.19309956
81	0x3c927401	0.01787758
82	0x3e3bf6e1	0.18355896
83	0x3d0a38d9	0.03374562
84	0x3e1b3b39	0.1515931
85	0xbdfbdc03	-0.12297823
86	0x3dcd60c9	0.10028226
87	0x3e49e8c7	0.19717704
88	0xbce0a4a2	-0.027422253
89	0x3e00a70e	0.12563726
90	0xbe11175c	-0.14169067
91	0xbe66a23f	-0.2252283
92	0xbe9356ac	-0.28777063
93	0xbe7633b3	-0.24043159
94	0xbebf0a14	-0.37312376
95	0xbd99c3d3	-0.07508054
96	0xbe4387f2	-0.19094828
97	0xbecd018b	-0.4004024
98	0xbe95f670	-0.2928958
99	0xbe4e383a	-0.20138636
100	0x3eb09358	0.34487414
101	0x3e30f5fa	0.17281333
102	0xbc88f52d	-0.016718471
103	0x3e12d2bc	0.14338201
104	0x3da6f76a	0.08152659
105	0x3e84865d	0.2588376
106	0x3e946d80	0.28989792
107	0xbe5f1305	-0.21784599
108	0x3d8728f1	0.06599606
109	0x3e12db29	0.14341415
110	0x3ee6b52a	0.45060092
111	0x3ee01c4b	0.43771586
112	0x3e8abb33	0.27095947
113	0xbeb7c624	-0.35893357
114	0x3d4ce763	0.050025355
115	0x3ea6da32	0.32588345
116	0x3e7480a8	0.23877203
117	0x3d1633e8	0.036670595
118	0xbeef5f0b	-0.467522
119	0x3c9b812c	0.018982492
120	0xbef5cdcd	-0.48008576
121	0xbe305c7a	-0.17222777
122	0x3e17d1f0	0.14826179
123	0xbd09996c	-0.03359358
124	0x3e8a554c	0.270182
125	0xbebbde00	-0.3669281
126	0xbf29de7b	-0.66355103
127	0xbe7fa3bc	-0.24964803
128	0x3e97c978	0.29645896
129	0x3eaa2e7a	0.33238584
130	0xbe9eb1e5	-0.30995098
131	0xbe1e6cd0	-0.15471196
132	0x3db0f4cb	0.086404406
133	0x3e829d2a	0.25510532
134	0x3da9203c	0.08258101
135	0xbd8701f9	-0.06592173
136	0xbdaa4125	-0.083132066
137	0x3c7a2e00	0.015269756
138	0x3d7f577f	0.062339302
139	0xbe0101d9	-0.12598361
140	0xbe3c13cc	-0.18366927
141	0xbe54df95	-0.20788415
142	0xbe2c0dcf	-0.16802143
143	0x3dce530c	0.10074434
144	0x3cf6e8c4	0.030140288
145	0xbd86957f	-0.06571483
146	0x3db02a55	0.08601824
147	0x3e1ea66c	0.15493172
148	0x3eb8f840	0.361269
149	0x3e164d06	0.1467782
150	0xbe308d96	-0.17241511
151	0x3edb2f79	0.42809656
152	0x3e52e654	0.20595676
153	0x3e1b4d76	0.15166268
154	0x3cfb55b0	0.030680507
155	0xbecddcf5	-0.4020764
156	0xbd6a4b9d	-0.057201017
157	0x3c320545	0.010865514
158	0x3dc068e3	0.093950056
159	0x3c6be008	0.014396675
160	0xbeec7586	-0.46183413
161	0xbf16bcbf	-0.58881754
162	0xbef06e6a	-0.4695924
163	0xbe301517	-0.17195545
164	0xbea45d56	-0.3210246
165	0x3e84e0a2	0.2595263
166	0x3cc5b024	0.024131842
167	0xbe24e706	-0.16103753
168	0xbe039a8b	-0.12851922
169	0xbec64eca	-0.38731986
170	0x3e12d1dc	0.14337867
171	0x3e6406d5	0.22268231
172	0x3dd7402c	0.10510287
173	0xbc1bb055	-0.00950249
174	0xbd452dbe	-0.048139326
175	0x3e2146fb	0.15749733
176	0x3eaa9a90	0.33321047
177	0x3eea1f0f	0.4572682
178	0x3d252434	0.04031773
179	0x3d9a1637	0.075237684
180	0xbe3a4a23	-0.18192343
181	0xbded6285	-0.11591057
182	0xbea86641	-0.32890514
183	0xbea82ab6	-0.32845086
184	0xbe2b574e	-0.16732523
185	0xbd8472c9	-0.06467206
186	0xbeef4528	-0.4673245
187	0xbf12f996	-0.5741209
188	0xbdf39195	-0.11893002
189	0xbd1e127d	-0.03859185
190	0x3dbf02ca	0.09326704
191	0xbc3053ef	-0.010762199
192	0x3d57cbc0	0.052684546
193	0x3e369151	0.17828871
194	0x3e52953a	0.20564738
195	0xbc91f88d	-0.017818714
196	0x3eb06e3e	0.34459108
197	0x3ecf14f0	0.40445662
198	0x3e0a4688	0.13503468
199	0xbdbf02ef	-0.093267314
200	0x3d994c90	0.07485306
201	0xbe48bd11	-0.19603373
202	0x3e9880f2	0.29785877
203	0x3e41e904	0.18936545
204	0x3cac4b4b	0.021031996
205	0xbd603000	-0.054733276
206	0xbf026eda	-0.50950396
207	0xbe532e22	-0.20623067
208	0x3d65804b	0.056030553
209	0x3e73a178	0.23792064
210	0x3e3bc385	0.18336304
211	0xbda5eb32	-0.081015006
212	0xbf14d854	-0.5814259
213	0xbe062663	-0.13100581
214	0x3e822f49	0.254267
215	0x3ee27f1c	0.44237602
216	0x3eafd6e6	0.34343642
217	0xbe8227f6	-0.25421113
218	0xbe90ad09	-0.28257015
219	0x3c96c1fc	0.018403046
220	0xbea60f60	-0.32433605
221	0x3eb8a0be	0.36060137
222	0x3d7f4721	0.062323693
223	0xbe119983	-0.14218716
224	0xbccd8f02	-0.025092606
225	0xbf048141	-0.51759726
226	0xbdd14fa6	-0.1022027
227	0x3e990bf4	0.29891932
228	0x3e419713	0.18905286
229	0x3e072d70	0.13200927
230	0xbeda190a	-0.42597228
231	0xbdf754ff	-0.120767586
232	0x3e57c52a	0.21071306
233	0xbd998edf	-0.074979536
234	0xbe0c282b	-0.13687198
235	0xbf142513	-0.5786907
236	0xbd9acdbd	-0.07558773
237	0x3e4ad7b6	0.1980885
238	0x3c65f184	0.014034633
239	0x3d08e658	0.033422798
240	0xbeca7909	-0.39545467
241	0xbdecc84a	-0.115616396
242	0x3e0eb388	0.13935673
243	0x3b7d5c56	0.0038659773
244	0x3daee6d1	0.085401185
245	0xbe069d31	-0.13145901
246	0xbf3df191	-0.74196726
247	0xbec2f86e	-0.38080162
248	0xbe9070b3	-0.28210983
249	0x3e298dbe	0.16557977
250	0x3e627e96	0.22118601
251	0x3e0b6c4c	0.1361553
252	0x3e117616	0.14205202
253	0x3ea05abd	0.31319228
254	0x3ec263a2	0.3796664
255	0x3d82ecbf	0.06392812

conv1.bias f4 [64]
0	0xb996b232	-0.00028742995
1	0x387344f2	5.7999925e-05
2	0xb9c601f3	-0.00037766955
3	0xb766b6bd	-1.3751615e-05
4	0xba661584	-0.000877701
5	0xb944fb22	-0.00018785571
6	0x39bbc88d	0.0003581684
7	0x3917cf7a	0.00014477773
8	0xb9d90e79	-0.00041400248
9	0x39c02faa	0.00036656606
10	0xb9519b33	-0.0001998961
11	0xb9ad3740	-0.00033038296
12	0x39817642	0.00024692906
13	0x396a8188	0.00022364233
14	0xb9700ea1	-0.00022893633
15	0x39cdd94b	0.00039262543
16	0xb988d8b9	-0.00026101412
17	0x38abac83	8.186048e-05
18	0xba154e2a	-0.0005695546
19	0x3a995575	0.0011698442
20	0xba377e62	-0.00069997285
21	0x3a0a1884	0.00052679353
22	0xba47bbfb	-0.0007619259
23	0x39835365	0.000250484
24	0x38c77ac3	9.5119256e-05
25	0x3980305a	0.00024450087
26	0xb99782e3	-0.00028898483
27	0xbac731d1	-0.0015197342
28	0x3a10479b	0.0005503834
29	0x37acde5a	2.0607538e-05
30	0x3a1ecb8b	0.0006057552
31	0x3a1efc1e	0.000606479
32	0xb9e93c23	-0.00044486028
33	0x39dc9880	0.0004207529
34	0xb9eb25d1	-0.00044850868
35	0x370ca59d	8.38321e-06
36	0xb95e2505	-0.0002118536
37	0x39a2ff65	0.00031089332
38	0xb8c302be	-9.298835e-05
39	0xb8a84af6	-8.024827e-05
40	0xbb0d55f1	-0.0021566118
41	0xba2c3381	-0.0006568954
42	0x3a253975	0.0006302812
43	0x39ffca89	0.0004878829
44	0xba7d3dbb	-0.00096603826
45	0x3a8c1e05	0.0010690099
46	0xb9319945	-0.00016937133
47	0xb9d13486	-0.0003990272
48	0x3969ee09	0.00022309287
49	0xb8ac51db	-8.216846e-05
50	0xb9afd591	-0.0003353772
51	0xb6b1aa1c	-5.2948144e-06
52	0xb8c405d9	-9.3470975e-05
53	0xb9300b98	-0.00016788987
54	0xb96b136a	-0.00022418579
55	0x3973f9df	0.0002326737
56	0xb79eac78	-1.891538e-05
57	0xb911160b	-0.00013836489
58	0x39a9d165	0.00032390203
59	0xb825f67c	-3.9568622e-05
60	0xb99e56a5	-0.00030200664
61	0x39d6b674	0.000409532
62	0xba139b7e	-0.0005630775
63	0x38dd3a65	0.00010548978

bn1.weight f4 [64]
0	0x3fb5043b	1.4141916
1	0x3f68b6ed	0.9090412
2	0x3f7da65d	0.99081975
3	0x3f89d080	1.0766754
4	0x3f49ada8	0.78780603
5	0x3f6bb14d	0.92067415
6	0x3fbaa8c5	1.4582754
7	0x3fa2b639	1.271186
8	0x3f843ab1	1.0330411
9	0x3faee54c	1.3663726
10	0x3f2ae265	0.667517
11	0x3f6a4939	0.9151798
12	0x3f75eef9	0.9606777
13	0x3fe2dfb8	1.7724524
14	0x3f8d5825	1.1042525
15	0x3f42ecfd	0.76142865
16	0x3f87de03	1.0614628
17	0x3f7ba8a5	0.98304206
18	0x3f580660	0.8438473
19	0x3f9b4e65	1.2133299
20	0x3fc50cd7	1.5394543
21	0x3f6c01ad	0.9219006
22	0x3f90678e	1.1281602
23	0x3f263c9f	0.6493625
24	0x3f1234e0	0.5711193
25	0x3f4f5879	0.80994374
26	0x3fbb4970	1.4631786
27	0x3fa875e8	1.3160982
28	0x3fabd444	1.3424153
29	0x3f5b052f	0.85554785
30	0x3f6f0347	0.93364376
31	0x3fe043cf	1.7520694
32	0x3f439b90	0.76409245
33	0x3fe1b683	1.7633823
34	0x3fbe27d9	1.485591
35	0x3f7324a6	0.94977796
36	0x3f4cab2e	0.799487
37	0x3f02758d	0.5096062
38	0x3f410ea9	0.75412995
39	0x3f80be2a	1.0058033
40	0x3f875995	1.0574213
41	0x3f929a9b	1.1453432
42	0x3f6542db	0.8955514
43	0x3f6cd598	0.9251342
44	0x3f58169f	0.8440952
45	0x3fb41b00	1.407074
46	0x3f95a46c	1.1690803
47	0x3f364c19	0.71209866
48	0x3f803e2f	1.0018977
49	0x3f9ebd97	1.2401608
50	0x3f4261f9	0.75930744
51	0x3f5993b6	0.84991014
52	0x3f2cb4c4	0.67463326
53	0x3fb13270	1.3843517
54	0x3f380407	0.71881145
55	0x3f63ccec	0.8898456
56	0x3feeddb0	1.8661404
57	0x3f761a3c	0.9613378
58	0x3f4ffef5	0.8124841
59	0x3fa887e3	1.3166469
60	0x3f5fbb3e	0.87395084
61	0x3f980106	1.1875312
62	0x3f8dbecc	1.1073852
63	0x3f387dae	0.7206677

bn1.bias f4 [64]
0	0xbe12fe48	-0.14354813
1	0xbe327dcd	-0.17430802
2	0xbede93af	-0.4347205
3	0xbdd677ab	-0.104720436
4	0x3ef21c2a	0.47287112
5	0xbe721ba6	-0.2364336
6	0xbe6323f7	-0.22181688
7	0xbcfd2995	-0.030903617
8	0x3e947263	0.2899352
9	0xbe03fbe3	-0.12889056
10	0x3ed8e996	0.42365712
11	0xbeab5330	-0.33461905
12	0xbdedd8a9	-0.1161359
13	0xbe27d613	-0.16390257
14	0xbe25e1b2	-0.16199377
15	0x3ea58c48	0.3233359
16	0xbe1ce2fa	-0.1532096
17	0xbdc6e509	-0.09711654
18	0x3f172e97	0.59055465
19	0xbea02467	-0.31277773
20	0xbed3170f	-0.4122853
21	0x3cca1ca0	0.024671853
22	0xbe65b0c2	-0.22430709
23	0x3f2f3f38	0.6845584
24	0x3e7387e8	0.23782313
25	0x3ef56331	0.4792724
26	0xbf10e822	-0.56604207
27	0xbe88bafe	-0.26705164
28	0xbf022686	-0.5084003
29	0xbe07aa95	-0.13248666
30	0xbe96d824	-0.29461777
31	0xbe5f7e56	-0.21825537
32	0x3e79dfea	0.24401823
33	0xbeac9d2c	-0.33713663
34	0xbf04d93b	-0.5189397
35	0xbed5528e	-0.41664547
36	0xbeb6e770	-0.35723448
37	0x3e10e884	0.14151198
38	0xbdd9b907	-0.10630994
39	0xbedd1b7d	-0.43185034
40	0xbe856dde	-0.26060385
41	0xbeb7fa32	-0.3593307
42	0xbd0c9702	-0.0343237
43	0xbe406f8b	-0.1879255
44	0xbdb2eb48	-0.087362826
45	0xbec1229b	-0.37721714
46	0xbde99357	-0.11405056
47	0x3bc44e3e	0.0059907725
48	0x3e10312a	0.14081255
49	0xbd5ca3ce	-0.053867154
50	0x3f1890cb	0.59595937
51	0xbe5ae817	-0.21377598
52	0xbd4eda4f	-0.050501164
53	0xbdc650ca	-0.09683378
54	0xbe413542	-0.18867972
55	0x3dad1dee	0.08452974
56	0xbecf65ce	-0.40507358
57	0xbda8b072	-0.08236779
58	0xbe15a012	-0.14611843
59	0x3d6535c4	0.055959478
60	0x3dacd1a7	0.084384255
61	0xbe0debf8	-0.13859546
62	0xbe8c94e7	-0.27457353
63	0x3db37339	0.08762211

bn1.running_mean f4 [64]
0	0xbe06a549	-0.13148989
1	0xbc9bdc35	-0.019025901
2	0xbd4be774	-0.049781278
3	0xbbf2efca	-0.007413839
4	0x3ddb5351	0.10709251
5	0xbd3949e0	-0.04523647
6	0xbcd4f226	-0.025994372
7	0x3cbf01b9	0.023316251
8	0x3c85b83e	0.016323205
9	0xbe1ef15d	-0.1552176
10	0x3e125266	0.14289245
11	0xbe06a839	-0.1315011
12	0xbd8369dc	-0.064166754
13	0xbcea766a	-0.028620917
14	0x3c4d2fff	0.01252365
15	0x3d35f745	0.044425268
16	0xbccb4b01	-0.024816038
17	0xbd2da2b7	-0.042391505
18	0x3e25e956	0.16202292
19	0xbd1a6901	-0.037697796
20	0xbe072799	-0.13198699
21	0xbd1f35cd	-0.038869668
22	0x3d3ceca8	0.04612413
23	0x3e181ab1	0.14853932
24	0x3caa2e8a	0.020774145
25	0x3d7ca42d	0.061680008
26	0xbdb33c9a	-0.08751793
27	0x3c63e0ec	0.013908606
28	0xbc1782ae	-0.009247465
29	0xbbf549d3	-0.007485607
30	0x3cf186ba	0.029483188
31	0xbdcac484	-0.09900764
32	0x3d5ebbee	0.054378442
33	0xbd983ed8	-0.074338615
34	0xbdc1479f	-0.09437489
35	0xbd2ab179	-0.041673157
36	0x3ce03608	0.027369514
37	0x3ccd4670	0.025058001
38	0x3dab7b6b	0.083731495
39	0xbd54971a	-0.051901914
40	0xbc1c7bcd	-0.009551001
41	0xbd47a1e8	-0.04873839
42	0x3dbfa939	0.093584485
43	0x3c6d7357	0.014492831
44	0x3da84928	0.082170784
45	0xbd2e1971	-0.04250473
46	0xbe09ce0d	-0.13457508
47	0x3d4814b5	0.048847873
48	0xbd9bc180	-0.076052666
49	0xbe386d71	-0.18010499
50	0x3d8db902	0.06920053
51	0xbd46d8f5	-0.04854675
52	0xbd1ef312	-0.03880603
53	0xbd9ed38a	-0.077551916
54	0x3d26e332	0.040744014
55	0xbc6ca774	-0.014444221
56	0xbdd30068	-0.10302812
57	0x3ce65d3b	0.028120628
58	0xbb1ddcf5	-0.0024088
59	0xbe12b202	-0.14325717
60	0xbc7f5c1a	-0.015585924
61	0x3cae7ebd	0.021300668
62	0xbd6924fa	-0.05692003
63	0xbce66dce	-0.02812853

bn1.running_var f4 [64]
0	0x403a5b81	2.911835
1	0x4039d95d	2.9038918
2	0x3f987803	1.1911625
3	0x403bbdad	2.933452
4	0x404fc40d	3.246341
5	0x40384855	2.8794148
6	0x40334b55	2.801473
7	0x3fb81ceb	1.4383825
8	0x3f3ecfe4	0.74535966
9	0x40a771d4	5.232645
10	0x40eda7f7	7.4267535
11	0x40237f35	2.554639
12	0x403c98ac	2.9468184
13	0x40484ae9	3.1295722
14	0x3f9f2c50	1.2435398
15	0x40606087	3.5058916
16	0x401ed7b3	2.4819152
17	0x400fd595	2.247411
18	0x4083d217	4.1193957
19	0x3f6156fd	0.8802336
20	0x40e01c8f	7.003486
21	0x3fb283b6	1.3946445
22	0x4035a244	2.838029
23	0x41005578	8.020866
24	0x4053e775	3.311002
25	0x3fb11f45	1.3837668
26	0x40ae2c07	5.4428744
27	0x4018941c	2.3840399
28	0x3fcb9a7d	1.5906521
29	0x402a817a	2.6641526
30	0x3f9238ce	1.1423585
31	0x40a0ffcd	5.0312257
32	0x3f9d30c5	1.2280508
33	0x40a55988	5.167179
34	0x40377483	2.8664863
35	0x3fe4d797	1.7878293
36	0x405ad36a	3.4191537
37	0x3f84f2ba	1.0386574
38	0x402f0913	2.7349288
39	0x403b69b4	2.9283266
40	0x3f3bc008	0.7333989
41	0x406344fe	3.551086
42	0x3fa478e9	1.2849399
43	0x40343600	2.815796
44	0x3f2cb701	0.6746674
45	0x3fae9337	1.3638676
46	0x4080ecf3	4.0289245
47	0x3faed0b2	1.3657439
48	0x3f77bfac	0.96776843
49	0x4115e142	9.367495
50	0x3fc39620	1.528019
51	0x3fd35631	1.6510679
52	0x3fce0576	1.6095417
53	0x40b214ac	5.5650234
54	0x40009a88	2.0094318
55	0x3f33f2f3	0.70292586
56	0x4071dd74	3.7791414
57	0x3fd64bb8	1.6741858
58	0x3f97c968	1.1858339
59	0x40ec5756	7.385661
60	0x3fd032a0	1.626545
61	0x4012a00e	2.291019
62	0x3f891dc0	1.0712204
63	0x3f556032	0.8334991

primary_caps.pose.weight f4 [128, 64, 1, 1]
0	0x3e6f2e59	0.23357524
1	0x3e23c7bb	0.1599416
2	0x3eaa26e3	0.33232793
3	0x3eb53b3a	0.3539675
4	0x3ec74fa7	0.38927957
5	0x3e4d1b99	0.20030059
6	0xbc985b92	-0.018598352
7	0xbbccb8ce	-0.0062476164
8	0xbd9a7a5c	-0.075428694
9	0x3d283ba0	0.041072488
10	0x3eec9caf	0.4621329
11	0xbe15cff4	-0.14630109
12	0x3e741f72	0.2384012
13	0x3e24c0ad	0.16089125
14	0xbd0daf73	-0.03459115
15	0x3e9d8967	0.30768892
16	0x3d8c68ba	0.068559125
17	0x3e8da5fd	0.27665702
18	0x3e954cb4	0.29160082
19	0x3ea73280	0.32655716
20	0x3ee1d0fb	0.44104752
21	0xbb2ac25a	-0.0026055784
22	0xbc41b226	-0.011822259
23	0x3ec2bc6a	0.38034374
24	0x3f03cd56	0.5148519
25	0x3e1391d1	0.14411093
26	0x3e43f32c	0.19135731
27	0x3deef546	0.11667876
28	0x3ef360f6	0.47534913
29	0x3d54732f	0.05186766
30	0x3d8b3e80	0.0679903
31	0x3e9cec51	0.30649045
32	0x3ea8ef3c	0.3299502
33	0x3db81f90	0.08990395
34	0xbea98000	-0.3310547
35	0x3eb20bf9	0.3477476
36	0x3e7a0e19	0.2441944
37	0x3e7144c2	0.23561385
38	0x3e9fbbbd	0.3119792
39	0x3ebebbb7	0.3725259
40	0xbd079785	-0.033103485
41	0x3effdbcf	0.49972388
42	0x3c772d03	0.015086415
43	0x3df8b8b0	0.12144601
44	0x3e5f004b	0.21777456
45	0x3e1f205a	0.15539685
46	0x3d54c330	0.051943958
47	0x3ec3e975	0.3826405
48	0x3e940058	0.28906512
49	0xbd182969	-0.037148867
50	0x3e9fde1c	0.31224144
51	0x3e04045a	0.12892285
52	0x3e9b3552	0.30314118
53	0xbe09c532	-0.1345413
54	0x3e2294e6	0.15877113
55	0x3dfa2bce	0.12215386
56	0xbf063691	-0.5242701
57	0x3f0ae78d	0.5425957
58	0x3e0579a0	0.13034678
59	0x3ef92dc8	0.4866774
60	0x3f0cad4c	0.5495193
61	0x3dad6eef	0.084684245
62	0xbecc2d7f	-0.3987846
63	0x3cf082de	0.029359277
64	0x3e93c96e	0.28864616
65	0xbcd6d232	-0.026223276
66	0x3e08803b	0.13330166
67	0x3ecba62f	0.39775226
68	0xbe9c4e05	-0.30528274
69	0xbde53d92	-0.11193384
70	0x3dc5ebb8	0.096641004
71	0x3ee365b9	0.44413546
72	0xbe5db563	-0.21651225
73	0xbf20a18d	-0.62746507
74	0x3cdc2302	0.026872162
75	0xbe81831c	-0.2529534
76	0xbc9796fa	-0.018504608
77	0xbd4832b5	-0.048876483
78	0x3dcbfab0	0.09959924
79	0xbccb10b6	-0.024788242
80	0x3ebcd9bc	0.36884868
81	0x3d4409b9	0.047860835
82	0xbe30cf3a	-0.1726655
83	0x3ee8eebc	0.4549464
84	0x3ed7c6e3	0.42143926
85	0xbd1434d5	-0.036183197
86	0xbd8c1c92	-0.06841387
87	0xbda5cb28	-0.080953896
88	0x3db7f35d	0.08981965
89	0xbe2c2c70	-0.16813827
90	0x3e9c35c5	0.30509773
91	0x3e897dec	0.26853883
92	0x3cff2ae0	0.031148374
93	0xbea96ddc	-0.3309163
94	0xbf0f4496	-0.5596403
95	0x3f04a220	0.51809883
96	0x3df6dd5b	0.12053939
97	0x3e6c10e0	0.23053312
98	0xbcfdb5d6	-0.030970495
99	0x3f5a706f	0.8532781
100	0x3eec196a	0.4611314
101	0xbe082da7	-0.13298665
102	0x3daea599	0.08527679
103	0x3efc1237	0.49232647
104	0x3d7639d2	0.060113735
105	0x3f1f7b9f	0.62298006
106	0x3cecc9b6	0.028904777
107	0x3e63e036	0.22253498
108	0x3dafaec0	0.08578253
109	0x3d1a0839	0.037605498
110	0xbd91f53c	-0.07126853
111	0x3de3c137	0.11120837
112	0x3c870fd5	0.016487041
113	0x3e51b57a	0.20479384
114	0xbe33d65a	-0.17562237
115	0x3eaf31a7	0.3421757
116	0x3d4ddeaf	0.050261196
117	0xbdd2d86f	-0.10295188
118	0xbeb5c9cc	-0.3550552
119	0x3e26008e	0.16211149
120	0xbec58506	-0.3857805
121	0x3e3d434e	0.18482706
122	0xbed13def	-0.40867564
123	0x3eac4acd	0.33650818
124	0x3eafe155	0.34351602
125	0x3ec1c134	0.37842715
126	0xbeba846f	-0.36429164
127	0xbcda4fdb	-0.026649406
128	0x3f228aa0	0.63492775
129	0x3e8505f5	0.25981107
130	0xbee8573a	-0.4537905
131	0x3dc2ed35	0.095179
132	0xbc84a423	-0.016191548
133	0xbf140d64	-0.5783293
134	0x3ecdbbb8	0.4018228
135	0x3e9def4c	0.30846632
136	0x3e37b223	0.17939048
137	0x3eaf4ae9	0.3423684
138	0xbed2b6e6	-0.41155165
139	0x3da9574f	0.08268606
140	0xbf27a765	-0.654898
141	0x3f11a5c8	0.5689359
142	0x3e79dfca	0.24401775
143	0xbe8402ab	-0.25783285
144	0xbdd876a5	-0.10569505
145	0xbe54efdc	-0.20794624
146	0xbea0a95a	-0.31379205
147	0xbd02ac6d	-0.03190272
148	0xbf1756b8	-0.591167
149	0x3d52e010	0.051483214
150	0x3e498336	0.19678959
151	0xbed94961	-0.42438796
152	0xbecc199a	-0.39863282
153	0x3d817835	0.06321756
154	0x3ed271f9	0.4110258
155	0x3e818807	0.25299093
156	0xbe9ca95e	-0.30597967
157	0x3d8f2732	0.06989898
158	0x3e485dfe	0.19567105
159	0xbe299368	-0.16560137
160	0xbe4ba3c7	-0.19886695
161	0x3df33440	0.118752
162	0x3e5473ed	0.20747347
163	0x3cb98b35	0.022649387
164	0xbec228ca	-0.37921745
165	0xbe27ec3a	-0.16398707
166	0x3d4d85b7	0.05017635
167	0x3d3b4e34	0.045728877
168	0x3e4a871f	0.19778107
169	0xbedb71bd	-0.42860213
170	0xbe10375b	-0.14083616
171	0x3e36132e	0.17780754
172	0xbdb07625	-0.08616284
173	0x3e883c84	0.2660867
174	0xbe7a8041	-0.24462987
175	0xbc792d6c	-0.015208583
176	0xbd35b497	-0.044361677
177	0x3e62d7be	0.22152612
178	0xbd4117c4	-0.047141805
179	0x3da561fb	0.08075329
180	0xbd8d7c3f	-0.06908464
181	0x3d1604ae	0.036625557
182	0xbeb2a603	-0.34892282
183	0xbd91ea1a	-0.071247295
184	0xbe3bf9e2	-0.18357041
185	0xbe2dfa0a	-0.16989914
186	0x3ca160c0	0.019699454
187	0xbefe7ce4	-0.4970466
188	0xbdd1f7a8	-0.10252315
189	0x3e9e2d1e	0.30893797
190	0x3d0d3b50	0.034480393
191	0xbe160d22	-0.14653447
192	0x3e3d57c0	0.18490505
193	0xbd50943b	-0.050922614
194	0x3e71d04f	0.2361462
195	0xbe21fbb0	-0.15818667
196	0xbea30d50	-0.31846094
197	0x3dbdb4dd	0.092630126
198	0x3eb33e59	0.35008505
199	0xbe8ff11e	-0.28113645
200	0x3d99ab03	0.07503321
201	0xbe76b262	-0.24091485
202	0xbe51ec63	-0.2050033
203	0xbe82feed	-0.25585118
204	0x3dcdaf15	0.1004316
205	0xbd3eef59	-0.04661498
206	0x3d5e6ba7	0.054301884
207	0xbec6856a	-0.38773662
208	0xbe56eb12	-0.2098811
209	0x3e402750	0.18764997
210	0xbe9644f0	-0.2934947
211	0x3e2fc6af	0.17165636
212	0x3db43212	0.08798613
213	0x3d29c5df	0.04144847
214	0xbdc2a615	-0.09504334
215	0xbe8e7685	-0.27824798
216	0xbe10020f	-0.14063285
217	0xbe82d3c7	-0.25552198
218	0xbdd70b82	-0.10500242
219	0x3daf3d85	0.08556656
220	0x3d956c39	0.072960325
221	0xbd64b7b2	-0.055839248
222	0xbead9322	-0.33901316
223	0xbe3a439c	-0.18189853
224	0xbec33ef5	-0.3813397
225	0x3e1702ae	0.14747116
226	0xbe838532	-0.25687557
227	0xbda16b71	-0.07881821
228	0xbd32ad1b	-0.043622117
229	0xbe93c1d0	-0.28858805
230	0xbe1d3e36	-0.15355763
231	0xbd7ad5dc	-0.06123911
232	0x3df299ea	0.11845763
233	0x3e063041	0.13104345
234	0xbe2fe39e	-0.17176673
235	0x3de38557	0.11109417
236	0xbb7e2978	-0.0038782042
237	0xbe980f62	-0.29699236
238	0xbd7ac6b6	-0.06122466
239	0xbdf238e9	-0.11827261
240	0xbeb76b3a	-0.35823995
241	0x3ea1abc9	0.31576374
242	0xbea725a1	-0.32645896
243	0x3e18a6b8	0.14907348
244	0x3ce3d746	0.027812611
245	0x3e86b6b3	0.26311263
246	0xbeb0e99a	-0.34553224
247	0x3d8613f5	0.06546775
248	0x3e2c4260	0.16822195
249	0xbe277be1	-0.1635585
250	0xbdcc90a3	-0.09988525
251	0xbbc16643	-0.005902083
252	0xbe921f5e	-0.28539556
253	0xbd864b20	-0.06557298
254	0x3e3fe803	0.18740849
255	0xbe67c41f	-0.22633408

primary_caps.pose.bias f4 [128]
0	0x3e888ebc	0.26671398
1	0xbcaa244e	-0.020769265
2	0xbe8438f2	-0.25824696
3	0xbdacc545	-0.08436064
4	0xbe3c8650	-0.18410611
5	0xbdd49925	-0.103807725
6	0x3d6ac47f	0.0573163
7	0xbe6e81e5	-0.23291738
8	0xbe6690ee	-0.22516224
9	0x3c6ce1a6	0.014458096
10	0xbcc9f51b	-0.024653008
11	0xbeaf6cfe	-0.34262842
12	0xbe982a6a	-0.2971986
13	0xbe7b7b3a	-0.24558726
14	0x3d2eecbf	0.042706247
15	0xbcc8aa1a	-0.024495173
16	0xbe930463	-0.28714284
17	0x3db30386	0.087409064
18	0xbd4b37c2	-0.04961372
19	0x3bf4f491	0.0074754437
20	0xbea69028	-0.32531857
21	0xbe06c5b5	-0.13161357
22	0xbea11cbc	-0.31467235
23	0xbea8c733	-0.32964477
24	0xbe828b12	-0.25496727
25	0x3d830422	0.06397273
26	0xbeaa0e85	-0.33214203
27	0xbc4ff0dc	-0.012691703
28	0xbeb46fd4	-0.35241568
29	0xbe21d24b	-0.15802877
30	0x3d927ed2	0.07153095
31	0x3e75eafe	0.24015424
32	0x3f0c3790	0.5477228
33	0xbe1ed5ff	-0.1551132
34	0x3d9f7036	0.077850744
35	0x3ef47695	0.4774672
36	0xbefe2b70	-0.49642515
37	0xbe5ae24b	-0.21375386
38	0x3e57323f	0.21015261
39	0x3e881283	0.26576623
40	0xbed6e8d4	-0.4197451
41	0xbebcbe3f	-0.36863896
42	0x3eb421e3	0.35182104
43	0x3e3c2662	0.18374017
44	0x3e7f3154	0.24921161
45	0x3e91e1fe	0.2849273
46	0x3ed57107	0.41687796
47	0x3e8c03ff	0.273468
48	0xbe1ce798	-0.15322721
49	0xbe9af379	-0.3026388
50	0x3e47e7aa	0.19521967
51	0x3df5c110	0.119997144
52	0x3ea6f034	0.32605135
53	0x3e9bd6aa	0.30437213
54	0x3e7151ed	0.23566408
55	0x3ee31824	0.44354355
56	0x3e8629b2	0.26203686
57	0xbe32aab0	-0.17447925
58	0x3ebce886	0.3689615
59	0x3eb55e93	0.35423717
60	0xbe9206b3	-0.28520736
61	0x3e00bdab	0.12572353
62	0xbdc4a511	-0.096017964
63	0x3d6829e3	0.05668057
64	0x3f6ce600	0.9253845
65	0x3e4f19c5	0.20224674
66	0xbe8f033b	-0.27932152
67	0x3dc07974	0.09398165
68	0x3d893805	0.06700138
69	0xbe87163e	-0.26384157
70	0x3e67a8c4	0.22622973
71	0xbe5a1317	-0.21296345
72	0x3f0b8973	0.54506606
73	0xbe1e0a85	-0.154337
74	0x3e1925e7	0.14955865
75	0xbe3eb32d	-0.18623038
76	0x3e06c21b	0.13159983
77	0xbe278d1d	-0.16362424
78	0xbe4af9bc	-0.19821829
79	0x3e55d6ad	0.20882674
80	0xbdf770fb	-0.12082096
81	0xbebe9524	-0.3722316
82	0x3e96cebf	0.2945461
83	0x3e14201a	0.14465371
84	0xbedb3437	-0.42813274
85	0x3ddb2e70	0.107022166
86	0xbd56386a	-0.052299894
87	0xbe9c332e	-0.30507797
88	0xbef2afd9	-0.47399786
89	0x3b5e6354	0.0033933716
90	0x3da6b006	0.081390426
91	0xbde2f982	-0.11082746
92	0x3c168925	0.009187971
93	0xbea92cb3	-0.33041915
94	0x3d48a32e	0.048983745
95	0xbe91c6b1	-0.28471902
96	0xbe8b67bf	-0.2722759
97	0xbe67e823	-0.22647147
98	0x3d7d9609	0.061910663
99	0xbddde9b0	-0.10835588
100	0x3db21fcc	0.08697471
101	0xbeb8a381	-0.36062244
102	0x3d65be00	0.0560894
103	0x3e14e7bf	0.14541529
104	0x3d36a161	0.044587497
105	0xbe9cb0ef	-0.3060374
106	0x3c364dcb	0.011126946
107	0x3d951889	0.0728007
108	0x3e35b2be	0.17743966
109	0xbced86a4	-0.028994866
110	0x3dfe453c	0.12415549
111	0xbb86eeb4	-0.004117811
112	0xbf0732fc	-0.5281217
113	0xbe117dee	-0.14208195
114	0xbe388323	-0.18018775
115	0x3e2c154d	0.16805
116	0x3e15b787	0.14620791
117	0xbea1b079	-0.3157995
118	0x3de1fe01	0.110347755
119	0x3ecaa4d5	0.39578882
120	0x3cdda466	0.02705593
121	0xbe94ebd0	-0.2908616
122	0x3d7a8d3d	0.06116985
123	0x3f2d2943	0.67641085
124	0xbf447456	-0.76740015
125	0x3ddf2be1	0.10897041
126	0x3d76e7fa	0.060279824
127	0xbea9dcd3	-0.33176288

primary_caps.a.weight f4 [8, 64, 1, 1]
0	0x394470aa	0.00018733987
1	0xb9ca206d	-0.00038552601
2	0xba3a07e2	-0.00070965115
3	0xb97b9596	-0.0002399295
4	0xba02db36	-0.00049917714
5	0xb8b4c121	-8.619042e-05
6	0xb92d621b	-0.00016535113
7	0xb8fd6d1d	-0.00012084304
8	0x39c71fc0	0.00037979893
9	0xb93f94be	-0.0001827059
10	0xb990856a	-0.00027565222
11	0xb86b7856	-5.6140438e-05
12	0x39ba7c32	0.00035569217
13	0x38b49fef	8.612859e-05
14	0x3a18219b	0.00058033474
15	0x397720b6	0.00023567941
16	0x39830697	0.00024991177
17	0x391c8f7b	0.0001493077
18	0xb812ec83	-3.502938e-05
19	0x3a77b00e	0.00094485364
20	0x39a2b386	0.00031032803
21	0x3805a12f	3.1859785e-05
22	0x39bbcea0	0.00035821367
23	0xb8e4e1f0	-0.00010913971
24	0xb9334e53	-0.00017099948
25	0x3a0a8c97	0.0005285232
26	0xb9e23bb1	-0.00043150553
27	0x3704682e	7.892069e-06
28	0xbb1cf844	-0.0023951689
29	0xb83f344b	-4.558665e-05
30	0xb9d2341c	-0.00040093146
31	0x3921c8bb	0.00015428934
32	0xba211443	-0.0006144682
33	0xb90d990f	-0.00013503827
34	0x3914b6a2	0.00014182416
35	0xb9e13a11	-0.00042958607
36	0xb9a85cef	-0.00032112698
37	0xba71c1b9	-0.00092222873
38	0xba081649	-0.0005191309
39	0xbaacb254	-0.0013175705
40	0xb92f171f	-0.00016697914
41	0x393719c2	0.00017461836
42	0xba23c75c	-0.00062476634
43	0x3968eaf3	0.0002221277
44	0xb81b6145	-3.704547e-05
45	0x3a1c9255	0.0005972733
46	0xb9317e9b	-0.000169272
47	0xba65a7c7	-0.00087606575
48	0xb7254186	-9.850022e-06
49	0xb815b0ea	-3.5689132e-05
50	0x3a5eeb5f	0.0008503701
51	0xb934afb3	-0.00017231591
52	0x39960a14	0.00028617738
53	0x3a11d9e7	0.0005563781
54	0x3a559e3b	0.00081488834
55	0x3a16dd8a	0.0005755058
56	0x39531767	0.00020131246
57	0xbab4d33d	-0.0013795864
58	0xb9b44064	-0.0003438025
59	0xb800e26a	-3.0728443e-05
60	0xba945d5d	-0.0011319328
61	0xba76f9a7	-0.00094213564
62	0x38c62b43	9.449434e-05
63	0x3a4605b6	0.00075539516
64	0x39735ee2	0.00023209632
65	0xbab9a646	-0.0014163933
66	0xba0527f4	-0.0005079501
67	0x38413aae	4.6069435e-05
68	0x3aba3950	0.0014207754
69	0xb9ef0822	-0.00045591692
70	0xb9d012c1	-0.00039686824
71	0xba871f4c	-0.001030901
72	0xb90b73cc	-0.0001329921
73	0x385308c0	5.031447e-05
74	0x3a2a762c	0.00065025943
75	0xb82ecbea	-4.1674743e-05
76	0xba33bae7	-0.0006856159
77	0xb99aa7c3	-0.0002949816
78	0x388d43a4	6.736003e-05
79	0x3a3e0788	0.0007249047
80	0x38104a24	3.4401324e-05
81	0xba04a7e6	-0.0005060419
82	0xb96ec439	-0.00022770547
83	0x3a15c46f	0.000571317
84	0x3913f502	0.00014110285
85	0xb98072a3	-0.00024499474
86	0xbac5f7ea	-0.0015103791
87	0x3a22b0f0	0.00062061753
88	0x3a4a819c	0.0007725002
89	0xba586e95	-0.0008256224
90	0xbac5850c	-0.0015069558
91	0xb9a9e423	-0.00032404167
92	0x3928c045	0.00016093354
93	0xb982aaea	-0.00024922873
94	0x3abd318a	0.001443432
95	0xb82c07fa	-4.1015424e-05
96	0xbaa74967	-0.0012762964
97	0xba62de14	-0.0008654308
98	0x399352b0	0.00028099632
99	0x3a186d29	0.0005814606
100	0x3923f6c5	0.0001563682
101	0x3a2f4fb6	0.0006687598
102	0xba608d5d	-0.00085659866
103	0xb985691a	-0.00025446044
104	0x3b5e9933	0.0033965826
105	0xb90e6036	-0.00013578017
106	0xb9a97d6f	-0.00032327647
107	0x398771f5	0.0002583411
108	0xba81f8e6	-0.0009916096
109	0x3b398e71	0.0028313661
110	0x3950d3e9	0.00019915368
111	0x396f8a9c	0.00022844452
112	0x3a275048	0.0006382507
113	0xba18bb26	-0.0005826227
114	0xba996358	-0.001170258
115	0xb98a660b	-0.0002639744
116	0xb992c426	-0.00027993432
117	0xba100583	-0.00054939854
118	0x39e70af3	0.0004406791
119	0xbaf47a76	-0.0018652219
120	0x3947555d	0.00019009919
121	0x3ab1803c	0.0013542245
122	0x3a806940	0.0009796992
123	0x388ac118	6.616319e-05
124	0x39cbdae4	0.00038882263
125	0xb9b53f25	-0.00034570057
126	0xba8e3437	-0.0010849301
127	0xba85a529	-0.0010196316
128	0xb8906a0a	-6.8862064e-05
129	0x398a5b62	0.00026389497
130	0x39c25d9b	0.00037072305
131	0x3a643411	0.0008705268
132	0x3b4a86e1	0.0030903148
133	0xb9f4852a	-0.00046638522
134	0xb8b93516	-8.8313755e-05
135	0xba463e78	-0.0007562409
136	0xb9032811	-0.0001250806
137	0x3857d262	5.145593e-05
138	0x3af6e13f	0.0018835439
139	0x3896b8b2	7.1869596e-05
140	0xba5fe9d2	-0.0008541617
141	0x3a23d28b	0.000624933
142	0x3a967209	0.0011478077
143	0x3a74c87f	0.00093377376
144	0xba46e526	-0.00075872464
145	0xba63b32c	-0.00086860615
146	0x3b2f5d3c	0.0026758453
147	0xbac6a841	-0.0015156345
148	0xb9fc65b3	-0.00048140957
149	0x3a2eef0f	0.0006673196
150	0x39296340	0.0001615407
151	0x3ae03d63	0.0017108138
152	0x3a84180e	0.001007797
153	0x3a4fef31	0.00079320656
154	0x39c186b0	0.0003691218
155	0x3a86160f	0.0010229963
156	0x3b6eb3ec	0.003642316
157	0xb98846db	-0.00025992733
158	0x3ac49d40	0.0015000477
159	0xb9e1fb9b	-0.00043102805
160	0x3af4ece6	0.0018686324
161	0x390b8f2d	0.0001330941
162	0xba1f1e39	-0.0006069872
163	0x392758c8	0.00015959435
164	0x39fa2a9e	0.00047715468
165	0x3a93fb51	0.0011290108
166	0x3a9f22b0	0.0012141075
167	0x3a91d806	0.0011127002
168	0x3ad79124	0.0016446454
169	0xba647b36	-0.00087158696
170	0x3a8297e7	0.0009963483
171	0x3a3f5aa7	0.000729958
172	0x398c99ce	0.00026817474
173	0x399f3804	0.00030368578
174	0x3984c46c	0.00025323348
175	0x3adb80ed	0.0016746797
176	0xb6967acf	-4.484645e-06
177	0x3874f845	5.8405352e-05
178	0x3a68058d	0.0008850925
179	0xb7c064d3	-2.2935134e-05
180	0xb89518f1	-7.109519e-05
181	0xb8c23765	-9.260959e-05
182	0x3a9431e4	0.0011306372
183	0x39ab8bae	0.0003271973
184	0xb8da58d5	-0.00010411596
185	0x3b1bacdd	0.0023754158
186	0x3a65127a	0.000873841
187	0xb9881238	-0.00025953515
188	0x3a8c3e11	0.001069965
189	0x3abbdc51	0.0014332627
190	0x3ae79c3d	0.0017670464
191	0xbacc2787	-0.0015575745
192	0x38f7ffb8	0.00011825509
193	0x39ccd461	0.00039068147
194	0x39f25913	0.00046224202
195	0x39de4302	0.00042393064
196	0x3aeb43ae	0.0017949247
197	0x3a07a3c9	0.0005174247
198	0x397050bd	0.00022918261
199	0x39f639b8	0.0004696378
200	0x38e93292	0.00011119725
201	0x3843ab2a	4.6651032e-05
202	0x3ada72c8	0.0016666288
203	0xb855cb6f	-5.097262e-05
204	0x395f34cf	0.0002128661
205	0x3a8926ce	0.0010463835
206	0x3a9b3021	0.0011839905
207	0x3a91908e	0.0011105703
208	0x39d3345d	0.0004028407
209	0x3937dc80	0.00017534383
210	0x3b099017	0.0020990425
211	0xb991e308	-0.00027825707
212	0xb93404d2	-0.00017167933
213	0x39af0624	0.00033383176
214	0x39c1015a	0.00036812836
215	0x3aeec3b1	0.001821628
216	0x3a8f67c1	0.0010940955
217	0x3ab56520	0.0013839342
218	0x398c1eb4	0.00026725756
219	0x3a5fb73c	0.0008534079
220	0x3a6e83f3	0.00090986415
221	0x39e83f22	0.00044297526
222	0x3a9093e2	0.0011030401
223	0xb8dca327	-0.00010520807
224	0x39d5f5e7	0.00040809737
225	0x387893c3	5.926542e-05
226	0x39bc0cc7	0.00035867674
227	0x3a3a5845	0.000710849
228	0x39ac63c7	0.00032880736
229	0x3a2ecb44	0.0006667862
230	0x3a2b7c29	0.00065416336
231	0x3966e235	0.00022018778
232	0x3ab5112c	0.0013814322
233	0x381eeaf8	3.7888967e-05
234	0x3a072d53	0.0005156595
235	0x3a17f481	0.0005796627
236	0x3abef511	0.0014568885
237	0x3b0bdb9a	0.002134061
238	0x398ce0e2	0.00026870432
239	0x3a8b29b6	0.0010617289
240	0x3a109fc2	0.000551697
241	0x38ad684d	8.2687104e-05
242	0x3a86b2f0	0.0010276716
243	0x3a013158	0.0004928312
244	0x3a07722d	0.0005166855
245	0xb986dfad	-0.00025725123
246	0x3a8fd5ab	0.0010973712
247	0xb911da59	-0.00013909618
248	0x38bd2d8c	9.020706e-05
249	0x3a60c0e9	0.0008573668
250	0x3a83888c	0.0010035201
251	0xb7fb8faa	-2.998843e-05
252	0x3a889953	0.0010421671
253	0x3a29b907	0.00064744096
254	0x3a1e279b	0.00060331234
255	0x3917b2ef	0.0001446714

primary_caps.a.bias f4 [8]
0	0xb9597143	-0.00020736926
1	0xb9b40a3b	-0.00034339898
2	0x3a430fd7	0.000744102
3	0x3a8ac3e1	0.0010586941
4	0x39cc1239	0.0003892349
5	0xb9728400	-0.00023128092
6	0xb9a6e8fa	-0.00031835568
7	0xbaafafb1	-0.00134038

conv_caps1.beta_u f4 [16]
0	0xbc15885c	-0.009126749
1	0xbd9b4a77	-0.075825624
2	0xbc00189e	-0.007818369
3	0x3dafde43	0.08587315
4	0x3c23aec0	0.009990394
5	0x3d95ca66	0.07313995
6	0x3df3fd9c	0.119136065
7	0xbce0ebaa	-0.027456123
8	0x3df532f0	0.11972606
9	0x3e236d13	0.15959577
10	0xbe4a1fbb	-0.19738667
11	0xbc379782	-0.011205556
12	0x3df69b4f	0.120413415
13	0xbe367bc9	-0.17820658
14	0xbc1bf0a5	-0.009517823
15	0x3cba02dc	0.022706442

conv_caps1.beta_a f4 [16]
0	0x3c46a3be	0.012124
1	0x3ca6b6ea	0.020350892
2	0xbc6f0c32	-0.01459031
3	0xbd26c40e	-0.040714316
4	0x3ca88613	0.020571744
5	0xbd3d6501	-0.046238903
6	0xbd7a338a	-0.061084308
7	0x3d6ec9a6	0.058297776
8	0xbd19a7e1	-0.037513617
9	0xbd47a10e	-0.048737578
10	0x3de79a4c	0.11308727
11	0xbd030936	-0.031991206
12	0xbd253806	-0.04033663
13	0x3d882bd9	0.06648988
14	0x3c4f50b7	0.012653521
15	0xbc53521d	-0.012897995

conv_caps1.weights f4 [1, 72, 16, 4, 4]
0	0xbeea4eae	-0.45763153
1	0x3faa4e24	1.3305097
2	0x3fed2596	1.8527095
3	0xbf909a2e	-1.1297052
4	0x3fd633ed	1.6734596
5	0x3e6d9eca	0.23205104
6	0xbf441d6f	-0.7660741
7	0x3f2c2461	0.6724301
8	0x3f68202b	0.90674084
9	0x3e9884b0	0.29788733
10	0xbe214331	-0.15748288
11	0x3f9af5da	1.2106278
12	0x3eb0a38e	0.34499782
13	0xbdc7e749	-0.09760911
14	0xbf7a827c	-0.97855353
15	0xbf019f20	-0.5063343
16	0xbf55e956	-0.8355917
17	0xbf8fa605	-1.122254
18	0xbc7dd3c4	-0.015492383
19	0xbe59cd82	-0.21269801
20	0x3f8277b6	1.0192783
21	0xbc3624de	-0.011117188
22	0x3fc4f580	1.5387421
23	0x3f73bb74	0.95207906
24	0xbf3e07b3	-0.742305
25	0x3f9fa649	1.2472621
26	0x3fb156e1	1.3854638
27	0x3fadb149	1.3569728
28	0xbe1b0ba0	-0.15141153
29	0xc0184814	-2.3793993
30	0x3cf6c4d2	0.030123148
31	0x3db9fc58	0.09081334
32	0xbe08252c	-0.1329543
33	0x3fd6708f	1.67531
34	0x3f0c8cef	0.5490255
35	0x3f6de21b	0.92923135
36	0xbf9b522c	-1.2134452
37	0xbd67a76a	-0.056556143
38	0xbfb72204	-1.4307256
39	0xbc9f2b35	-0.019429782
40	0xbe90e0fd	-0.28296652
41	0x3fc998b7	1.574973
42	0xbfb03c0c	-1.3768325
43	0x3eb0b07b	0.34509644
44	0xbea58459	-0.32327536
45	0x3e9365c1	0.2878857
46	0xbfe6b9a6	-1.8025405
47	0x3f4f9a85	0.81095153
48	0xbef2fecb	-0.47460017
49	0x3f612bf2	0.8795768
50	0xbef7dc62	-0.48410326
51	0xc006a04f	-2.1035345
52	0xbed2694e	-0.41095966
53	0x4003d0b9	2.0596144
54	0x3fe46e6d	1.7846199
55	0xbfb05dbf	-1.3778609
56	0x403c70ee	2.9443927
57	0xbefa98db	-0.48944744
58	0xbf8493e7	-1.0357636
59	0xbf147658	-0.5799308
60	0x3f28dd70	0.65962887
61	0x3e8d0940	0.2754612
62	0x3f5fabf3	0.8737175
63	0x3e8de8b1	0.27716592
64	0x3ea1132b	0.31459936
65	0x3e94453a	0.28959066
66	0x3f537dd0	0.8261385
67	0x3fba9e72	1.4579604
68	0xbf9d4df4	-1.2289414
69	0xbe2adc95	-0.16685708
70	0x3cca141c	0.024667792
71	0xbeca9f2d	-0.39574566
72	0xbe8dcfad	-0.27697507
73	0x3edafb56	0.4276988
74	0xbe95cb17	-0.29256508
75	0x3ec39234	0.38197482
76	0xbf430ee6	-0.7619461
77	0x3f0d16c7	0.5511288
78	0x3e300e04	0.17192847
79	0x3f18240f	0.5943002
80	0x3f207bee	0.626891
81	0xbf7cc428	-0.9873681
82	0x3eb20814	0.34771788
83	0xbe0e622d	-0.13904639
84	0xbe0b3b99	-0.13596953
85	0xc00a9a83	-2.1656806
86	0xbfc2633f	-1.5186538
87	0xbeef9b1e	-0.46798033
88	0xbf4d65cc	-0.80233455
89	0x3f3fe3a6	0.7495674
90	0xbef0ac9b	-0.47006688
91	0x40096b1d	2.1471627
92	0xbec68ec5	-0.387808
93	0xbeba500b	-0.36389193
94	0xbd67d8a7	-0.0566031
95	0x3e6f28a9	0.23355354
96	0xbf74af05	-0.9557956
97	0x3e78cdb6	0.24297222
98	0x3fc98594	1.574389
99	0xbf6aed43	-0.9176828
100	0x3ebec7d5	0.37261835
101	0x3f22c078	0.63574934
102	0x3e5c5e68	0.21520388
103	0xbeca50b7	-0.39514706
104	0xbf36712c	-0.71266437
105	0xbe1a2b6e	-0.1505563
106	0x3e8ad621	0.27116492
107	0x3f8765c4	1.0577931
108	0x3eed1556	0.4630534
109	0xbf30963f	-0.6897926
110	0x3d649b92	0.055812426
111	0xbece5d6d	-0.40305653
112	0xbf9969a8	-1.1985369
113	0xbf412b5f	-0.75456804
114	0xbe4c87ef	-0.1997373
115	0xbd73affe	-0.05949401
116	0xc0377ae1	-2.866875
117	0x3f748259	0.95511395
118	0x3fb1c02d	1.3886772
119	0x3fcc074c	1.5939727
120	0x3f50f9ed	0.81631356
121	0x3f91025c	1.1328845
122	0xbf519668	-0.81870127
123	0x3fb9a4a4	1.4503369
124	0xbfd80709	-1.6877147
125	0x3ecbae99	0.39781645
126	0xbf9eada7	-1.2396744
127	0x3f936e02	1.1517947
128	0x3fab94b7	1.3404759
129	0x3e2fd6d3	0.17171793
130	0x3f20c1f5	0.62795955
131	0x3fa4fab1	1.2889005
132	0x3d54da70	0.05196613
133	0xbf719d6b	-0.94380826
134	0x3edc030b	0.42971072
135	0xbe9cc56b	-0.30619368
136	0xbfa45d5f	-1.2840995
137	0x3f254db0	0.64571667
138	0xbf8c6806	-1.0969245
139	0x3f71f218	0.9451003
140	0x3f64256b	0.89119595
141	0xbee61cf4	-0.44943964
142	0x3f9d1a3c	1.2273631
143	0xbf704b93	-0.9386532
144	0x4044ac3b	3.073012
145	0xbcba0a28	-0.022709921
146	0x3e707fe1	0.23486282
147	0x3eae784c	0.34076154
148	0xbf3ee917	-0.74574417
149	0x4066c847	3.605974
150	0xbfdcc2b7	-1.7246922
151	0x3fba93f7	1.4576405
152	0xbf5e6ffb	-0.8688962
153	0x3f2741ef	0.6533498
154	0xbf5253e0	-0.82159233
155	0x3fc2827c	1.5196071
156	0xbfd3f576	-1.6559284
157	0x3dda9790	0.106734395
158	0x3f002f58	0.5007224
159	0xbf29d4a4	-0.6634009
160	0x3f686111	0.9077311
161	0x3f605208	0.8762517
162	0xbd2a0f58	-0.04151854
163	0xbfbe11be	-1.4849164
164	0x3fc67551	1.5504552
165	0x3f7bf33c	0.9841802
166	0x3f50028c	0.81253886
167	0x3ea77a68	0.32710576
168	0xbfe089f5	-1.7542101
169	0x3f8bee63	1.0932125
170	0x3f766673	0.96250075
171	0x3f128bbe	0.5724448
172	0xbf341fc0	-0.70360947
173	0xbf77d308	-0.96806383
174	0xbf85b445	-1.0445639
175	0xbe536aa1	-0.20646144
176	0x3fb63bf3	1.4237045
177	0x3fa85cf4	1.3153367
178	0x3d5c9173	0.05384965
179	0xbff7231a	-1.9307587
180	0x3e94defb	0.2907637
181	0x3f60dd01	0.87837225
182	0xbf8e1bc0	-1.1102219
183	0x3e0a78aa	0.13522592
184	0xbfc20d0b	-1.516023
185	0x3f18302d	0.5944851
186	0x3fc581b6	1.543021
187	0x3eebc7f1	0.4605098
188	0xbeffb7f4	-0.49945033
189	0xbd69b344	-0.057055727
190	0xbf4dc687	-0.80381054
191	0x3e153934	0.14572603
192	0x3f3e1e2b	0.7426478
193	0x3da16672	0.07880868
194	0x3f318d8c	0.6935661
195	0x3eef9ed9	0.4680088
196	0xbf3b4029	-0.73144776
197	0xbf9d6330	-1.2295895
198	0x3ebc9e11	0.36839345
199	0xbe465373	-0.19367771
200	0xbf9941e1	-1.197323
201	0xc0375138	-2.8643322
202	0x3fb645bb	1.424003
203	0xbb303665	-0.002688789
204	0x3e653d33	0.22386627
205	0x3f4684b6	0.7754625
206	0xbe0c11d8	-0.13678682
207	0x3fb869ad	1.440725
208	0xbf5a29c7	-0.8522
209	0x3ff66231	1.9248716
210	0xbf2a7b3c	-0.6659429
211	0xc03aaaea	-2.9166818
212	0x3e331d42	0.1749163
213	0x400591f0	2.0870323
214	0xbf5e87f9	-0.8692623
215	0xbe96da38	-0.29463363
216	0xbf50e256	-0.8159536
217	0x3ed955d5	0.42448297
218	0xbf8a4cde	-1.0804708
219	0xbf2cafb3	-0.67455596
220	0xbfb2ed05	-1.3978583
221	0xbfce6b1b	-1.6126436
222	0xbf840737	-1.0314702
223	0xbf456247	-0.77103084
224	0x3f10c70f	0.5655374
225	0x4019e61e	2.4046702
226	0xbdd35afe	-0.1032009
227	0x3f03124a	0.5119978
228	0x3f39327c	0.7234266
229	0x3f0e0983	0.55483264
230	0xbea3d29c	-0.3199662
231	0x3eb6889d	0.35651103
232	0xbf4dfac7	-0.8046078
233	0xbf8e8724	-1.1134992
234	0x3cb53e6c	0.022124492
235	0xbd3bb698	-0.04582843
236	0xbf5404b0	-0.8281965
237	0x3f3d4586	0.7393421
238	0x3dde9b86	0.108695075
239	0xbf854719	-1.0412322
240	0xbf14896c	-0.5802219
241	0x3f5d8401	0.86529547
242	0xc00b8db5	-2.180524
243	0xbf48390a	-0.78212035
244	0x3f7b14e0	0.9807873
245	0x3f651f61	0.89501005
246	0x3f3f7a9b	0.74796456
247	0x3ef218df	0.472846
248	0x3e8fc572	0.28080326
249	0x3ec833fa	0.39102155
250	0xbf294dac	-0.6613414
251	0xbe91b9fd	-0.2846221
252	0xbf4fbe9c	-0.8115022
253	0x3ee36159	0.44410208
254	0x401df5b2	2.468121
255	0xbf26e4a1	-0.6519261

conv_caps2.beta_u f4 [16]
0	0x3f17fcc6	0.59370077
1	0xbe939a52	-0.28828675
2	0x3f34d226	0.7063316
3	0x3ff28f0d	1.8949906
4	0x3fba7baa	1.4568989
5	0x3f5e7eaa	0.86912024
6	0x3e3ff7bc	0.18746847
7	0xbe2d1c18	-0.16905248
8	0xbd97d208	-0.07413107
9	0x3f64a3ea	0.89312613
10	0x3f9cfbaf	1.2264308
11	0x3fbd2f1a	1.4779999
12	0x3c832b59	0.01601188
13	0x3f9017fb	1.1257318
14	0x3e799e9e	0.24376914
15	0xbe62e247	-0.2215663

conv_caps2.beta_a f4 [16]
0	0xbecc3dde	-0.3989095
1	0x3e8cb9f6	0.27485627
2	0xbe94e7ba	-0.29083043
3	0xbea3bf57	-0.31981918
4	0xbe62706a	-0.22113195
5	0xbea5cea5	-0.3238422
6	0xbe66a60e	-0.22524282
7	0x3e26a718	0.16274679
8	0x3dd36072	0.1032113
9	0xbe0ed0c7	-0.1394683
10	0xbe38f81a	-0.18063393
11	0xbe791bf4	-0.2432707
12	0x3e37587d	0.1790485
13	0xbe5c98f7	-0.21542726
14	0xbdd32f0d	-0.103117086
15	0x3e4021a0	0.18762827

conv_caps2.weights f4 [1, 144, 16, 4, 4]
0	0x3f722bfc	0.94598365
1	0x3bd3800b	0.006454473
2	0xbf6963d1	-0.9116793
3	0xbf197945	-0.5995067
4	0xbf08c50b	-0.53425664
5	0xbf242252	-0.6411487
6	0x3e3b141f	0.18269394
7	0xbfd4b12b	-1.6616567
8	0x3faa25cf	1.3292788
9	0x3fc7b759	1.5602828
10	0xbf13b3bc	-0.5769613
11	0x3ec7cd5b	0.3902386
12	0x3f200332	0.62504876
13	0xbf84d48a	-1.0377362
14	0x3f1ba747	0.6080212
15	0x3f75f236	0.9607271
16	0x3e5a28c8	0.2130462
17	0xbf416e70	-0.7555914
18	0xbfb28b99	-1.3948852
19	0x3df8e707	0.1215344
20	0xbec59331	-0.3858886
21	0x3f33408d	0.7002037
22	0xbf895983	-1.0730442
23	0xbfbd3d7a	-1.4784386
24	0xbf395b8d	-0.7240532
25	0x3efd7aa5	0.49507633
26	0x3e0c48e8	0.13699687
27	0xbe4d7d4f	-0.20067333
28	0x40085cf8	2.1306744
29	0x3f3f857e	0.7481307
30	0xbf236325	-0.6382316
31	0x3f8fc450	1.1231785
32	0xbd94c436	-0.07263987
33	0xbe29dcb1	-0.16588093
34	0x3e2424d5	0.16029675
35	0xbf6f16fa	-0.93394434
36	0x3f2bfeb4	0.6718552
37	0xbf13eabe	-0.57780063
38	0x3db6c655	0.089245476
39	0xc027bc13	-2.6208541
40	0x3e644d88	0.22295201
41	0x3f34a91a	0.7057053
42	0x3dcbadd7	0.09945267
43	0x3ff2f0ad	1.8979698
44	0x3fa213b8	1.2662268
45	0x3e9cbb02	0.30611426
46	0xbeb2a511	-0.3489156
47	0x3f822ae7	1.0169343
48	0x3e68b4f3	0.22725277
49	0xbf0ee87f	-0.5582351
50	0xbfa784be	-1.3087385
51	0xbed9c3f4	-0.42532313
52	0xbe1172ba	-0.14203921
53	0x3fd26f20	1.6440163
54	0x3ef588c5	0.4795591
55	0xbfb473d9	-1.4097854
56	0x3f42603e	0.75928104
57	0xbf85e1b9	-1.045951
58	0x3ecbbd28	0.39792752
59	0x3ec97ed1	0.39354566
60	0x3f96e98b	1.1790022
61	0x3fb21f0a	1.3915722
62	0xbf90f763	-1.1325496
63	0x3e30de86	0.17272386
64	0x3f4f772b	0.8104121
65	0x3f20cb4d	0.6281021
66	0xc045920b	-3.0870388
67	0x3de60514	0.11231437
68	0xbff5ddf6	-1.9208362
69	0xbead28c8	-0.33820176
70	0x3efd33fa	0.49453717
71	0xbf90efe4	-1.1323209
72	0xbfe0ce55	-1.7562968
73	0xbfc1ded9	-1.5146133
74	0x3f01b00a	0.5065924
75	0x3f989bcb	1.1922544
76	0x3f2ab7e3	0.6668684
77	0xbfb0f7b1	-1.382559
78	0xbd0680af	-0.032837566
79	0x3edf6aff	0.4363632
80	0x3fee6d12	1.8627036
81	0x3fe965da	1.8234208
82	0xc03342a5	-2.8009427
83	0xbf84eab4	-1.0384126
84	0x3e8f335b	0.2796887
85	0x40018848	2.023943
86	0xc006da4f	-2.1070745
87	0x3fda37f1	1.7048322
88	0x3f5368c0	0.8258171
89	0xbf9bfa92	-1.2185843
90	0xc01db66f	-2.4642599
91	0xbf6a1874	-0.9144356
92	0x3fcd2c91	1.6029226
93	0x3f5017bf	0.81286234
94	0x3f8baa05	1.0911261
95	0xbfe3ddfa	-1.7802117
96	0x3f9cf3cd	1.2261902
97	0xbde1f9b1	-0.11033953
98	0x3efd8045	0.49511924
99	0xbf71a2b0	-0.94388866
100	0xbeb055d5	-0.34440485
101	0x3ff3d96d	1.9050728
102	0xbe61207a	-0.21985045
103	0xbf30857d	-0.68953687
104	0xbf2e7684	-0.6814959
105	0x3fae4fe1	1.3618127
106	0xbf51f4b5	-0.8201402
107	0x3e85db6d	0.2614397
108	0xbf6a78d6	-0.9159063
109	0xbcd7a75c	-0.02632492
110	0x3f3bd552	0.73372376
111	0x3f45df75	0.77294093
112	0x3f83d221	1.0298501
113	0x3fd81d55	1.6883951
114	0xbb93acfc	-0.0045067053
115	0x3dc17d37	0.09447711
116	0x3fbf28f6	1.4934375
117	0x400b393a	2.1753678
118	0x3fc10830	1.5080624
119	0x3f4b7ee0	0.7949047
120	0x3f3bfdb6	0.7343401
121	0xbd646106	-0.05575659
122	0xc010d248	-2.2628345
123	0xbfafc421	-1.3731729
124	0x3de9dd8a	0.11419208
125	0x3f8e6b59	1.112651
126	0x3e1da4fe	0.15394971
127	0xbfbb8285	-1.4649206
128	0x401668f4	2.3501558
129	0x3e2ca314	0.16859084
130	0x3e9b5cd1	0.3034425
131	0xbe0888c2	-0.13333419
132	0x3f8bb411	1.0914327
133	0x3f6c6570	0.9234228
134	0xbd3efdfd	-0.04662894
135	0x3f2e4a12	0.6808177
136	0xbeaf5f03	-0.34252176
137	0x3ea4d157	0.32190964
138	0xc0046e0c	-2.0692167
139	0x3fca593b	1.5808481
140	0x3f917493	1.1363701
141	0xbe9654df	-0.29361627
142	0x3fa16cf4	1.2611375
143	0xbf7003cf	-0.9375581
144	0xbf87243e	-1.0557935
145	0xc018a90b	-2.3853176
146	0xbf8d0286	-1.1016395
147	0xbeb9ad7e	-0.36265177
148	0x3f645c3a	0.89203227
149	0xbd1aa90c	-0.037758872
150	0x3f6d24f3	0.92634505
151	0x3f219d46	0.63130605
152	0xbdfaac77	-0.12239926
153	0x3e9966de	0.29961294
154	0x3d9cdda6	0.076594636
155	0x3f60943d	0.87726194
156	0xbde046b4	-0.109509856
157	0xbdc7f26a	-0.09763034
158	0xbe8d9a35	-0.27656713
159	0x3f8685b1	1.0509549
160	0x3f292c1c	0.6608293
161	0xbe7b7f0c	-0.24560183
162	0x3fcb513d	1.5884167
163	0x3e50dd0d	0.20396824
164	0x3fd21016	1.6411159
165	0x3f28eecc	0.65989375
166	0x3faa23af	1.329214
167	0xbc08e7c3	-0.008356038
168	0xbf1224ef	-0.57087606
169	0xbf082c84	-0.53192925
170	0xbffed885	-1.9909827
171	0x4019c7ed	2.4028275
172	0x4045d6a2	3.0912251
173	0xbf22ea46	-0.6363872
174	0x3fb194c9	1.3873531
175	0x3f97604a	1.182626
176	0x3d0d2e00	0.034467697
177	0xbe3e02d9	-0.18555774
178	0x3fc9add6	1.5756176
179	0x3f780bac	0.9689281
180	0xbf771755	-0.96519977
181	0xbf841642	-1.0319293
182	0x3e9ea6e3	0.309867
183	0x3f5b1f6c	0.8559482
184	0xbe1b8c9d	-0.15190358
185	0xbd53a332	-0.051669307
186	0xbe5ef405	-0.21772774
187	0xbe8e8256	-0.27833813
188	0xbeb51330	-0.353662
189	0x3f6e07c6	0.9298061
190	0x3ea8067e	0.32817453
191	0xbf8695be	-1.0514448
192	0xbf2155c2	-0.6302148
193	0xbf93f05b	-1.1557726
194	0x3f424312	0.7588359
195	0x3f45e995	0.7730954
196	0x3f96a2b7	1.1768407
197	0x3fbeeb7c	1.4915614
198	0xbf944792	-1.1584342
199	0xbfb793fa	-1.4342034
200	0x3f94f8ae	1.1638391
201	0x3ee5fdcb	0.4492019
202	0x3dd63b8b	0.10460576
203	0x3e988b8f	0.29793975
204	0x3f04885f	0.51770586
205	0x40353064	2.8310785
206	0xbc12f362	-0.00896916
207	0x3ff40baa	1.906606
208	0xbf778185	-0.96682006
209	0x3fa7c0cd	1.3105713
210	0xbf285934	-0.65761113
211	0xbffbd0de	-1.9673116
212	0x3ebc4fcb	0.36779627
213	0xbf5228f6	-0.8209375
214	0x3fa5e54e	1.2960603
215	0x3ee7b3b3	0.45254287
216	0x3e803725	0.25042072
217	0xbf3fd6ba	-0.7493702
218	0x3f006cab	0.50165814
219	0x3f0669f3	0.52505416
220	0x3fc214d9	1.5162612
221	0xbe2df495	-0.16987832
222	0x3e82b0b6	0.25525445
223	0x3e603102	0.21893695
224	0x3d9ce624	0.07661083
225	0xbee593cc	-0.44839323
226	0x3ec1fbe4	0.3788749
227	0xbf4bb62c	-0.7957485
228	0xbe473842	-0.19455054
229	0x3ec211c2	0.37904173
230	0xbf08c421	-0.5342427
231	0xbf1ad039	-0.6047397
232	0xbea06173	-0.31324348
233	0xbf12c6e3	-0.5733473
234	0xbecb3fdd	-0.3969716
235	0x3ec0d9b1	0.37666085
236	0x3f140820	0.578249
237	0x3f96294f	1.1731356
238	0xbfbcfb1a	-1.476413
239	0x3ee57b80	0.44820786
240	0x3fc2c64e	1.5216768
241	0xbfaa3401	-1.329712
242	0xbed3f38f	-0.41396758
243	0xbf629a87	-0.8851704
244	0xbfb7ba80	-1.435379
245	0xbfc9afbd	-1.5756756
246	0x40086d41	2.1316683
247	0xbf5b61e1	-0.85696226
248	0x403e500d	2.973636
249	0xbee7a8e0	-0.4524603
250	0xbf0c864f	-0.5489244
251	0xbd5e9949	-0.054345403
252	0xbfdfcbb3	-1.7484039
253	0xbf344e0d	-0.70431596
254	0x3cd2df6c	0.025741301
255	0xbf898dd1	-1.0746404

class_caps.beta_u f4 [10]
0	0xbee2d938	-0.4430635
1	0x3f83e503	1.0304264
2	0xbedf14b3	-0.4357048
3	0xbeea8332	-0.4580322
4	0xbee02c79	-0.4378393
5	0xbeda17d0	-0.42596292
6	0xbe17d1c8	-0.14826119
7	0xbeb82074	-0.3596226
8	0xbf070f29	-0.5275751
9	0xbf002194	-0.50051236

class_caps.beta_a f4 [10]
0	0xc17799f6	-15.475088
1	0xc16f0192	-14.937883
2	0xc1748115	-15.281514
3	0xc16ed997	-14.9281225
4	0xc1786c41	-15.526429
5	0xc17540cd	-15.3283205
6	0xc17e84a2	-15.907381
7	0xc176cdd8	-15.425255
8	0xc16a2415	-14.633809
9	0xc16db478	-14.85656
